…
2022-09-03 21:17:01.124601: I tensorflow/core/platform/cpu_feature_guard.cc:151] This TensorFlow binary is optimized with oneAPI Deep Neural Network Library (oneDNN) to use the following CPU instructions in performance-critical operations:  AVX AVX2
To enable them in other operations, rebuild TensorFlow with the appropriate compiler flags.


Model Summary: 
Model: "sequential"
_________________________________________________________________
 Layer (type)                Output Shape              Param #   
=================================================================
 dense (Dense)               (None, 32)                2144      
                                                                 
 dropout (Dropout)           (None, 32)                0         
                                                                 
 dense_1 (Dense)             (None, 32)                1056      
                                                                 
 dropout_1 (Dropout)         (None, 32)                0         
                                                                 
 dense_2 (Dense)             (None, 32)                1056      
                                                                 
 dropout_2 (Dropout)         (None, 32)                0         
                                                                 
 dense_3 (Dense)             (None, 1)                 33        
                                                                 
=================================================================
Total params: 4,289
Trainable params: 4,289
Non-trainable params: 0
_________________________________________________________________
None
Epoch 1/100
199/199 - 1s - loss: 0.4278 - accuracy: 0.8127 - 879ms/epoch - 4ms/step
Epoch 2/100
199/199 - 0s - loss: 0.2995 - accuracy: 0.8827 - 278ms/epoch - 1ms/step
…
