…
2022-09-03 20:20:45.760058: I tensorflow/core/platform/cpu_feature_guard.cc:151] This TensorFlow binary is optimized with oneAPI Deep Neural Network Library (oneDNN) to use the following CPU instructions in performance-critical operations:  AVX AVX2
To enable them in other operations, rebuild TensorFlow with the appropriate compiler flags.


Model Summary: 
Model: "sequential"
_________________________________________________________________
 Layer (type)                Output Shape              Param #   
=================================================================
 dense (Dense)               (None, 32)                2144      
                                                                 
 dropout (Dropout)           (None, 32)                0         
                                                                 
 dense_1 (Dense)             (None, 32)                1056      
                                                                 
 dropout_1 (Dropout)         (None, 32)                0         
                                                                 
 dense_2 (Dense)             (None, 32)                1056      
                                                                 
 dropout_2 (Dropout)         (None, 32)                0         
                                                                 
 dense_3 (Dense)             (None, 1)                 33        
                                                                 
=================================================================
Total params: 4,289
Trainable params: 4,289
Non-trainable params: 0
_________________________________________________________________
None
Epoch 1/100
465/465 - 1s - loss: 0.5423 - accuracy: 0.8699 - 1s/epoch - 3ms/step
Epoch 2/100
465/465 - 1s - loss: 0.3257 - accuracy: 0.9104 - 664ms/epoch - 1ms/step
…
